…
, 'weight_decay': 1e-05}
2021-01-19 11:33:59 [/workdir/denoiser/main/nnet/libs/trainer.py:142 - INFO ] Model summary:
ConvTasNet(
  (encoder_1d): Conv1D(1, 256, kernel_size=(20,), stride=(10,))
  (ln): ChannelWiseLayerNorm((256,), eps=1e-05, elementwise_affine=True)
  (proj): Conv1D(256, 256, kernel_size=(1,), stride=(1,))
  (repeats): Sequential(
    (0): Sequential(
      (0): Conv1DBlock(
        (conv1x1): Conv1D(256, 512, kernel_size=(1,), stride=(1,))
        (prelu1): PReLU(num_parameters=1)
        (lnorm1): GlobalChannelLayerNorm(512, eps=1e-05, elementwise_affine=True)
        (dconv): Conv1d(512, 512, kernel_size=(3,), stride=(1,), padding=(1,), groups=512)
        (prelu2): PReLU(num_parameters=1)
        (lnorm2): GlobalChannelLayerNorm(512, eps=1e-05, elementwise_affine=True)
        (sconv): Conv1d(512, 256, kernel_size=(1,), stride=(1,))
      )
      (1): Conv1DBlock(
        (conv1x1): Conv1D(256, 512, kernel_size=(1,), stride=(1,))
        (prelu1): PReLU(num_parameters=1)
        (lnorm1): GlobalChannelLayerNorm(512, eps=1e-05, elementwise_affine=True)
        (dconv): Conv1d(512, 512, kernel_size=(3,), stride=(1,), padding=(2,), dilation=(2,), groups=512)
        (prelu2): PReLU(num_parameters=1)
        (lnorm2): GlobalChannelLayerNorm(512, eps=1e-05, elementwise_affine=True)
        (sconv): Conv1d(512, 256, kernel_size=(1,), stride=(1,))
      )
      (2): Conv1DBlock(
        (conv1x1): Conv1D(256, 512, kernel_size=(1,), stride=(1,))
        (prelu1): PReLU(num_parameters=1)
        (lnorm1): GlobalChannelLayerNorm(512, eps=1e-05, elementwise_affine=True)
        (dconv): Conv1d(512, 512, kernel_size=(3,), stride=(1,), padding=(4,), dilation=(4,), groups=512)
        (prelu2): PReLU(num_parameters=1)
        (lnorm2): GlobalChannelLayerNorm(512, eps=1e-05, elementwise_affine=True)
        (sconv): Conv1d(512, 256, kernel_size=(1,), stride=(1,))
      )
      (3): Conv1DBlock(
        (conv1x1): Conv1D(256, 512, kernel_size=(1,), stride=(1,))
        (prelu1): PReLU(num_parameters=1)
        (lnorm1): GlobalChannelLayerNorm(512, eps=1e-05, elementwise_affine=True)
        (dconv): Conv1d(512, 512, kernel_size=(3,), stride=(1,), padding=(8,), dilation=(8,), groups=512)
        (prelu2): PReLU(num_parameters=1)
        (lnorm2): GlobalChannelLayerNorm(512, eps=1e-05, elementwise_affine=True)
        (sconv): Conv1d(512, 256, kernel_size=(1,), stride=(1,))
      )
      (4): Conv1DBlock(
        (conv1x1): Conv1D(256, 512, kernel_size=(1,), stride=(1,))
        (prelu1): PReLU(num_parameters=1)
        (lnorm1): GlobalChannelLayerNorm(512, eps=1e-05, elementwise_affine=True)
        (dconv): Conv1d(512, 512, kernel_size=(3,), stride=(1,), padding=(16,), dilation=(16,), groups=512)
        (prelu2): PReLU(num_parameters=1)
        (lnorm2): GlobalChannelLayerNorm(512, eps=1e-05, elementwise_affine=True)
        (sconv): Conv1d(512, 256, kernel_size=(1,), stride=(1,))
      )
      (5): Conv1DBlock(
        (conv1x1): Conv1D(256, 512, kernel_size=(1,), stride=(1,))
        (prelu1): PReLU(num_parameters=1)
        (lnorm1): GlobalChannelLayerNorm(512, eps=1e-05, elementwise_affine=True)
        (dconv): Conv1d(512, 512, kernel_size=(3,), stride=(1,), padding=(32,), dilation=(32,), groups=512)
        (prelu2): PReLU(num_parameters=1)
        (lnorm2): GlobalChannelLayerNorm(512, eps=1e-05, elementwise_affine=True)
        (sconv): Conv1d(512, 256, kernel_size=(1,), stride=(1,))
      )
      (6): Conv1DBlock(
        (conv1x1): Conv1D(256, 512, kernel_size=(1,), stride=(1,))
        (prelu1): PReLU(num_parameters=1)
        (lnorm1): GlobalChannelLayerNorm(512, eps=1e-05, elementwise_affine=True)
        (dconv): Conv1d(512, 512, kernel_size=(3,), stride=(1,), padding=(64,), dilation=(64,), groups=512)
        (prelu2): PReLU(num_parameters=1)
        (lnorm2): GlobalChannelLayerNorm(512, eps=1e-05, elementwise_affine=True)
        (sconv): Conv1d(512, 256, kernel_size=(1,), stride=(1,))
      )
      (7): Conv1DBlock(
        (conv1x1): Conv1D(256, 512, kernel_size=(1,), stride=(1,))
        (prelu1): PReLU(num_parameters=1)
        (lnorm1): GlobalChannelLayerNorm(512, eps=1e-05, elementwise_affine=True)
        (dconv): Conv1d(512, 512, kernel_size=(3,), stride=(1,), padding=(128,), dilation=(128,), groups=512)
        (prelu2): PReLU(num_parameters=1)
        (lnorm2): GlobalChannelLayerNorm(512, eps=1e-05, elementwise_affine=True)
        (sconv): Conv1d(512, 256, kernel_size=(1,), stride=(1,))
      )
    )
    (1): Sequential(
      (0): Conv1DBlock(
        (conv1x1): Conv1D(256, 512, kernel_size=(1,), stride=(1,))
        (prelu1): PReLU(num_parameters=1)
        (lnorm1): GlobalChannelLayerNorm(512, eps=1e-05, elementwise_affine=True)
        (dconv): Conv1d(512, 512, kernel_size=(3,), stride=(1,), padding=(1,), groups=512)
        (prelu2): PReLU(num_parameters=1)
        (lnorm2): GlobalChannelLayerNorm(512, eps=1e-05, elementwise_affine=True)
        (sconv): Conv1d(512, 256, kernel_size=(1,), stride=(1,))
      )
      (1): Conv1DBlock(
        (conv1x1): Conv1D(256, 512, kernel_size=(1,), stride=(1,))
        (prelu1): PReLU(num_parameters=1)
        (lnorm1): GlobalChannelLayerNorm(512, eps=1e-05, elementwise_affine=True)
        (dconv): Conv1d(512, 512, kernel_size=(3,), stride=(1,), padding=(2,), dilation=(2,), groups=512)
        (prelu2): PReLU(num_parameters=1)
        (lnorm2): GlobalChannelLayerNorm(512, eps=1e-05, elementwise_affine=True)
        (sconv): Conv1d(512, 256, kernel_size=(1,), stride=(1,))
      )
      (2): Conv1DBlock(
        (conv1x1): Conv1D(256, 512, kernel_size=(1,), stride=(1,))
        (prelu1): PReLU(num_parameters=1)
        (lnorm1): GlobalChannelLayerNorm(512, eps=1e-05, elementwise_affine=True)
        (dconv): Conv1d(512, 512, kernel_size=(3,), stride=(1,), padding=(4,), dilation=(4,), groups=512)
        (prelu2): PReLU(num_parameters=1)
        (lnorm2): GlobalChannelLayerNorm(512, eps=1e-05, elementwise_affine=True)
        (sconv): Conv1d(512, 256, kernel_size=(1,), stride=(1,))
      )
      (3): Conv1DBlock(
        (conv1x1): Conv1D(256, 512, kernel_size=(1,), stride=(1,))
        (prelu1): PReLU(num_parameters=1)
        (lnorm1): GlobalChannelLayerNorm(512, eps=1e-05, elementwise_affine=True)
        (dconv): Conv1d(512, 512, kernel_size=(3,), stride=(1,), padding=(8,), dilation=(8,), groups=512)
        (prelu2): PReLU(num_parameters=1)
        (lnorm2): GlobalChannelLayerNorm(512, eps=1e-05, elementwise_affine=True)
        (sconv): Conv1d(512, 256, kernel_size=(1,), stride=(1,))
      )
      (4): Conv1DBlock(
        (conv1x1): Conv1D(256, 512, kernel_size=(1,), stride=(1,))
        (prelu1): PReLU(num_parameters=1)
        (lnorm1): GlobalChannelLayerNorm(512, eps=1e-05, elementwise_affine=True)
        (dconv): Conv1d(512, 512, kernel_size=(3,), stride=(1,), padding=(16,), dilation=(16,), groups=512)
        (prelu2): PReLU(num_parameters=1)
        (lnorm2): GlobalChannelLayerNorm(512, eps=1e-05, elementwise_affine=True)
        (sconv): Conv1d(512, 256, kernel_size=(1,), stride=(1,))
      )
      (5): Conv1DBlock(
        (conv1x1): Conv1D(256, 512, kernel_size=(1,), stride=(1,))
        (prelu1): PReLU(num_parameters=1)
        (lnorm1): GlobalChannelLayerNorm(512, eps=1e-05, elementwise_affine=True)
        (dconv): Conv1d(512, 512, kernel_size=(3,), stride=(1,), padding=(32,), dilation=(32,), groups=512)
        (prelu2): PReLU(num_parameters=1)
        (lnorm2): GlobalChannelLayerNorm(512, eps=1e-05, elementwise_affine=True)
        (sconv): Conv1d(512, 256, kernel_size=(1,), stride=(1,))
      )
      (6): Conv1DBlock(
        (conv1x1): Conv1D(256, 512, kernel_size=(1,), stride=(1,))
        (prelu1): PReLU(num_parameters=1)
        (lnorm1): GlobalChannelLayerNorm(512, eps=1e-05, elementwise_affine=True)
        (dconv): Conv1d(512, 512, kernel_size=(3,), stride=(1,), padding=(64,), dilation=(64,), groups=512)
        (prelu2): PReLU(num_parameters=1)
        (lnorm2): GlobalChannelLayerNorm(512, eps=1e-05, elementwise_affine=True)
        (sconv): Conv1d(512, 256, kernel_size=(1,), stride=(1,))
      )
      (7): Conv1DBlock(
        (conv1x1): Conv1D(256, 512, kernel_size=(1,), stride=(1,))
        (prelu1): PReLU(num_parameters=1)
        (lnorm1): GlobalChannelLayerNorm(512, eps=1e-05, elementwise_affine=True)
        (dconv): Conv1d(512, 512, kernel_size=(3,), stride=(1,), padding=(128,), dilation=(128,), groups=512)
        (prelu2): PReLU(num_parameters=1)
        (lnorm2): GlobalChannelLayerNorm(512, eps=1e-05, elementwise_affine=True)
        (sconv): Conv1d(512, 256, kernel_size=(1,), stride=(1,))
      )
    )
    (2): Sequential(
      (0): Conv1DBlock(
        (conv1x1): Conv1D(256, 512, kernel_size=(1,), stride=(1,))
        (prelu1): PReLU(num_parameters=1)
        (lnorm1): GlobalChannelLayerNorm(512, eps=1e-05, elementwise_affine=True)
        (dconv): Conv1d(512, 512, kernel_size=(3,), stride=(1,), padding=(1,), groups=512)
        (prelu2): PReLU(num_parameters=1)
        (lnorm2): GlobalChannelLayerNorm(512, eps=1e-05, elementwise_affine=True)
        (sconv): Conv1d(512, 256, kernel_size=(1,), stride=(1,))
      )
      (1): Conv1DBlock(
        (conv1x1): Conv1D(256, 512, kernel_size=(1,), stride=(1,))
        (prelu1): PReLU(num_parameters=1)
        (lnorm1): GlobalChannelLayerNorm(512, eps=1e-05, elementwise_affine=True)
        (dconv): Conv1d(512, 512, kernel_size=(3,), stride=(1,), padding=(2,), dilation=(2,), groups=512)
        (prelu2): PReLU(num_parameters=1)
        (lnorm2): GlobalChannelLayerNorm(512, eps=1e-05, elementwise_affine=True)
        (sconv): Conv1d(512, 256, kernel_size=(1,), stride=(1,))
      )
      (2): Conv1DBlock(
        (conv1x1): Conv1D(256, 512, kernel_size=(1,), stride=(1,))
        (prelu1): PReLU(num_parameters=1)
        (lnorm1): GlobalChannelLayerNorm(512, eps=1e-05, elementwise_affine=True)
        (dconv): Conv1d(512, 512, kernel_size=(3,), stride=(1,), padding=(4,), dilation=(4,), groups=512)
        (prelu2): PReLU(num_parameters=1)
        (lnorm2): GlobalChannelLayerNorm(512, eps=1e-05, elementwise_affine=True)
        (sconv): Conv1d(512, 256, kernel_size=(1,), stride=(1,))
      )
      (3): Conv1DBlock(
        (conv1x1): Conv1D(256, 512, kernel_size=(1,), stride=(1,))
        (prelu1): PReLU(num_parameters=1)
        (lnorm1): GlobalChannelLayerNorm(512, eps=1e-05, elementwise_affine=True)
        (dconv): Conv1d(512, 512, kernel_size=(3,), stride=(1,), padding=(8,), dilation=(8,), groups=512)
        (prelu2): PReLU(num_parameters=1)
        (lnorm2): GlobalChannelLayerNorm(512, eps=1e-05, elementwise_affine=True)
        (sconv): Conv1d(512, 256, kernel_size=(1,), stride=(1,))
      )
      (4): Conv1DBlock(
        (conv1x1): Conv1D(256, 512, kernel_size=(1,), stride=(1,))
        (prelu1): PReLU(num_parameters=1)
        (lnorm1): GlobalChannelLayerNorm(512, eps=1e-05, elementwise_affine=True)
        (dconv): Conv1d(512, 512, kernel_size=(3,), stride=(1,), padding=(16,), dilation=(16,), groups=512)
        (prelu2): PReLU(num_parameters=1)
        (lnorm2): GlobalChannelLayerNorm(512, eps=1e-05, elementwise_affine=True)
        (sconv): Conv1d(512, 256, kernel_size=(1,), stride=(1,))
      )
      (5): Conv1DBlock(
        (conv1x1): Conv1D(256, 512, kernel_size=(1,), stride=(1,))
        (prelu1): PReLU(num_parameters=1)
        (lnorm1): GlobalChannelLayerNorm(512, eps=1e-05, elementwise_affine=True)
        (dconv): Conv1d(512, 512, kernel_size=(3,), stride=(1,), padding=(32,), dilation=(32,), groups=512)
        (prelu2): PReLU(num_parameters=1)
        (lnorm2): GlobalChannelLayerNorm(512, eps=1e-05, elementwise_affine=True)
        (sconv): Conv1d(512, 256, kernel_size=(1,), stride=(1,))
      )
      (6): Conv1DBlock(
        (conv1x1): Conv1D(256, 512, kernel_size=(1,), stride=(1,))
        (prelu1): PReLU(num_parameters=1)
        (lnorm1): GlobalChannelLayerNorm(512, eps=1e-05, elementwise_affine=True)
        (dconv): Conv1d(512, 512, kernel_size=(3,), stride=(1,), padding=(64,), dilation=(64,), groups=512)
        (prelu2): PReLU(num_parameters=1)
        (lnorm2): GlobalChannelLayerNorm(512, eps=1e-05, elementwise_affine=True)
        (sconv): Conv1d(512, 256, kernel_size=(1,), stride=(1,))
      )
      (7): Conv1DBlock(
        (conv1x1): Conv1D(256, 512, kernel_size=(1,), stride=(1,))
        (prelu1): PReLU(num_parameters=1)
        (lnorm1): GlobalChannelLayerNorm(512, eps=1e-05, elementwise_affine=True)
        (dconv): Conv1d(512, 512, kernel_size=(3,), stride=(1,), padding=(128,), dilation=(128,), groups=512)
        (prelu2): PReLU(num_parameters=1)
        (lnorm2): GlobalChannelLayerNorm(512, eps=1e-05, elementwise_affine=True)
        (sconv): Conv1d(512, 256, kernel_size=(1,), stride=(1,))
      )
    )
    (3): Sequential(
      (0): Conv1DBlock(
        (conv1x1): Conv1D(256, 512, kernel_size=(1,), stride=(1,))
        (prelu1): PReLU(num_parameters=1)
        (lnorm1): GlobalChannelLayerNorm(512, eps=1e-05, elementwise_affine=True)
        (dconv): Conv1d(512, 512, kernel_size=(3,), stride=(1,), padding=(1,), groups=512)
        (prelu2): PReLU(num_parameters=1)
        (lnorm2): GlobalChannelLayerNorm(512, eps=1e-05, elementwise_affine=True)
        (sconv): Conv1d(512, 256, kernel_size=(1,), stride=(1,))
      )
      (1): Conv1DBlock(
        (conv1x1): Conv1D(256, 512, kernel_size=(1,), stride=(1,))
        (prelu1): PReLU(num_parameters=1)
        (lnorm1): GlobalChannelLayerNorm(512, eps=1e-05, elementwise_affine=True)
        (dconv): Conv1d(512, 512, kernel_size=(3,), stride=(1,), padding=(2,), dilation=(2,), groups=512)
        (prelu2): PReLU(num_parameters=1)
        (lnorm2): GlobalChannelLayerNorm(512, eps=1e-05, elementwise_affine=True)
        (sconv): Conv1d(512, 256, kernel_size=(1,), stride=(1,))
      )
      (2): Conv1DBlock(
        (conv1x1): Conv1D(256, 512, kernel_size=(1,), stride=(1,))
        (prelu1): PReLU(num_parameters=1)
        (lnorm1): GlobalChannelLayerNorm(512, eps=1e-05, elementwise_affine=True)
        (dconv): Conv1d(512, 512, kernel_size=(3,), stride=(1,), padding=(4,), dilation=(4,), groups=512)
        (prelu2): PReLU(num_parameters=1)
        (lnorm2): GlobalChannelLayerNorm(512, eps=1e-05, elementwise_affine=True)
        (sconv): Conv1d(512, 256, kernel_size=(1,), stride=(1,))
      )
      (3): Conv1DBlock(
        (conv1x1): Conv1D(256, 512, kernel_size=(1,), stride=(1,))
        (prelu1): PReLU(num_parameters=1)
        (lnorm1): GlobalChannelLayerNorm(512, eps=1e-05, elementwise_affine=True)
        (dconv): Conv1d(512, 512, kernel_size=(3,), stride=(1,), padding=(8,), dilation=(8,), groups=512)
        (prelu2): PReLU(num_parameters=1)
        (lnorm2): GlobalChannelLayerNorm(512, eps=1e-05, elementwise_affine=True)
        (sconv): Conv1d(512, 256, kernel_size=(1,), stride=(1,))
      )
      (4): Conv1DBlock(
        (conv1x1): Conv1D(256, 512, kernel_size=(1,), stride=(1,))
        (prelu1): PReLU(num_parameters=1)
        (lnorm1): GlobalChannelLayerNorm(512, eps=1e-05, elementwise_affine=True)
        (dconv): Conv1d(512, 512, kernel_size=(3,), stride=(1,), padding=(16,), dilation=(16,), groups=512)
        (prelu2): PReLU(num_parameters=1)
        (lnorm2): GlobalChannelLayerNorm(512, eps=1e-05, elementwise_affine=True)
        (sconv): Conv1d(512, 256, kernel_size=(1,), stride=(1,))
      )
      (5): Conv1DBlock(
        (conv1x1): Conv1D(256, 512, kernel_size=(1,), stride=(1,))
        (prelu1): PReLU(num_parameters=1)
        (lnorm1): GlobalChannelLayerNorm(512, eps=1e-05, elementwise_affine=True)
        (dconv): Conv1d(512, 512, kernel_size=(3,), stride=(1,), padding=(32,), dilation=(32,), groups=512)
        (prelu2): PReLU(num_parameters=1)
        (lnorm2): GlobalChannelLayerNorm(512, eps=1e-05, elementwise_affine=True)
        (sconv): Conv1d(512, 256, kernel_size=(1,), stride=(1,))
      )
      (6): Conv1DBlock(
        (conv1x1): Conv1D(256, 512, kernel_size=(1,), stride=(1,))
        (prelu1): PReLU(num_parameters=1)
        (lnorm1): GlobalChannelLayerNorm(512, eps=1e-05, elementwise_affine=True)
        (dconv): Conv1d(512, 512, kernel_size=(3,), stride=(1,), padding=(64,), dilation=(64,), groups=512)
        (prelu2): PReLU(num_parameters=1)
        (lnorm2): GlobalChannelLayerNorm(512, eps=1e-05, elementwise_affine=True)
        (sconv): Conv1d(512, 256, kernel_size=(1,), stride=(1,))
      )
      (7): Conv1DBlock(
        (conv1x1): Conv1D(256, 512, kernel_size=(1,), stride=(1,))
        (prelu1): PReLU(num_parameters=1)
        (lnorm1): GlobalChannelLayerNorm(512, eps=1e-05, elementwise_affine=True)
        (dconv): Conv1d(512, 512, kernel_size=(3,), stride=(1,), padding=(128,), dilation=(128,), groups=512)
        (prelu2): PReLU(num_parameters=1)
        (lnorm2): GlobalChannelLayerNorm(512, eps=1e-05, elementwise_affine=True)
        (sconv): Conv1d(512, 256, kernel_size=(1,), stride=(1,))
      )
    )
  )
  (mask): Conv1D(256, 512, kernel_size=(1,), stride=(1,))
  (decoder_1d): ConvTrans1D(256, 1, kernel_size=(20,), stride=(10,))
)
2021-01-19 11:33:59 [/workdir/denoiser/main/nnet/libs/trainer.py:144 - INFO ] Loading model to GPUs:(0, 1, 2, 3), #param: 8.75M
2021-01-19 11:34:00 [/workdir/denoiser/main/nnet/libs/trainer.py:202 - INFO ] Set eval mode...
…
