…
2021-11-19 14:23:36 [/workplace/yxzeng/new/Speech_Denoiser/main/nnet/libs/trainer.py:143 - INFO ] Model summary:
MS_SL2_split_model(
  (encoder_1d): Conv1D(1, 512, kernel_size=(16,), stride=(8,))
  (ln): ChannelWiseLayerNorm((512,), eps=1e-05, elementwise_affine=True)
  (proj): Conv1D(512, 128, kernel_size=(1,), stride=(1,))
  (slices): Sequential(
    (0): Sequential(
      (0): Sequential(
        (0): Conv1DBlock(
          (conv1x1): Conv1D(128, 512, kernel_size=(1,), stride=(1,))
          (prelu1): PReLU(num_parameters=1)
          (lnorm1): GlobalChannelLayerNorm(512, eps=1e-05, elementwise_affine=True)
          (dconv): Conv1d(512, 512, kernel_size=(3,), stride=(1,), padding=(1,), groups=512)
          (prelu2): PReLU(num_parameters=1)
          (lnorm2): GlobalChannelLayerNorm(512, eps=1e-05, elementwise_affine=True)
          (sconv): Conv1d(512, 128, kernel_size=(1,), stride=(1,))
          (skip_out): Conv1d(512, 128, kernel_size=(1,), stride=(1,))
        )
        (1): Conv1DBlock(
          (conv1x1): Conv1D(128, 512, kernel_size=(1,), stride=(1,))
          (prelu1): PReLU(num_parameters=1)
          (lnorm1): GlobalChannelLayerNorm(512, eps=1e-05, elementwise_affine=True)
          (dconv): Conv1d(512, 512, kernel_size=(3,), stride=(1,), padding=(2,), dilation=(2,), groups=512)
          (prelu2): PReLU(num_parameters=1)
          (lnorm2): GlobalChannelLayerNorm(512, eps=1e-05, elementwise_affine=True)
          (sconv): Conv1d(512, 128, kernel_size=(1,), stride=(1,))
          (skip_out): Conv1d(512, 128, kernel_size=(1,), stride=(1,))
        )
        (2): Conv1DBlock(
          (conv1x1): Conv1D(128, 512, kernel_size=(1,), stride=(1,))
          (prelu1): PReLU(num_parameters=1)
          (lnorm1): GlobalChannelLayerNorm(512, eps=1e-05, elementwise_affine=True)
          (dconv): Conv1d(512, 512, kernel_size=(3,), stride=(1,), padding=(4,), dilation=(4,), groups=512)
          (prelu2): PReLU(num_parameters=1)
          (lnorm2): GlobalChannelLayerNorm(512, eps=1e-05, elementwise_affine=True)
          (sconv): Conv1d(512, 128, kernel_size=(1,), stride=(1,))
          (skip_out): Conv1d(512, 128, kernel_size=(1,), stride=(1,))
        )
        (3): Conv1DBlock(
          (conv1x1): Conv1D(128, 512, kernel_size=(1,), stride=(1,))
          (prelu1): PReLU(num_parameters=1)
          (lnorm1): GlobalChannelLayerNorm(512, eps=1e-05, elementwise_affine=True)
          (dconv): Conv1d(512, 512, kernel_size=(3,), stride=(1,), padding=(8,), dilation=(8,), groups=512)
          (prelu2): PReLU(num_parameters=1)
          (lnorm2): GlobalChannelLayerNorm(512, eps=1e-05, elementwise_affine=True)
          (sconv): Conv1d(512, 128, kernel_size=(1,), stride=(1,))
          (skip_out): Conv1d(512, 128, kernel_size=(1,), stride=(1,))
        )
        (4): Conv1DBlock(
          (conv1x1): Conv1D(128, 512, kernel_size=(1,), stride=(1,))
          (prelu1): PReLU(num_parameters=1)
          (lnorm1): GlobalChannelLayerNorm(512, eps=1e-05, elementwise_affine=True)
          (dconv): Conv1d(512, 512, kernel_size=(3,), stride=(1,), padding=(16,), dilation=(16,), groups=512)
          (prelu2): PReLU(num_parameters=1)
          (lnorm2): GlobalChannelLayerNorm(512, eps=1e-05, elementwise_affine=True)
          (sconv): Conv1d(512, 128, kernel_size=(1,), stride=(1,))
          (skip_out): Conv1d(512, 128, kernel_size=(1,), stride=(1,))
        )
        (5): Conv1DBlock(
          (conv1x1): Conv1D(128, 512, kernel_size=(1,), stride=(1,))
          (prelu1): PReLU(num_parameters=1)
          (lnorm1): GlobalChannelLayerNorm(512, eps=1e-05, elementwise_affine=True)
          (dconv): Conv1d(512, 512, kernel_size=(3,), stride=(1,), padding=(32,), dilation=(32,), groups=512)
          (prelu2): PReLU(num_parameters=1)
          (lnorm2): GlobalChannelLayerNorm(512, eps=1e-05, elementwise_affine=True)
          (sconv): Conv1d(512, 128, kernel_size=(1,), stride=(1,))
          (skip_out): Conv1d(512, 128, kernel_size=(1,), stride=(1,))
        )
        (6): Conv1DBlock(
          (conv1x1): Conv1D(128, 512, kernel_size=(1,), stride=(1,))
          (prelu1): PReLU(num_parameters=1)
          (lnorm1): GlobalChannelLayerNorm(512, eps=1e-05, elementwise_affine=True)
          (dconv): Conv1d(512, 512, kernel_size=(3,), stride=(1,), padding=(64,), dilation=(64,), groups=512)
          (prelu2): PReLU(num_parameters=1)
          (lnorm2): GlobalChannelLayerNorm(512, eps=1e-05, elementwise_affine=True)
          (sconv): Conv1d(512, 128, kernel_size=(1,), stride=(1,))
          (skip_out): Conv1d(512, 128, kernel_size=(1,), stride=(1,))
        )
        (7): Conv1DBlock(
          (conv1x1): Conv1D(128, 512, kernel_size=(1,), stride=(1,))
          (prelu1): PReLU(num_parameters=1)
          (lnorm1): GlobalChannelLayerNorm(512, eps=1e-05, elementwise_affine=True)
          (dconv): Conv1d(512, 512, kernel_size=(3,), stride=(1,), padding=(128,), dilation=(128,), groups=512)
          (prelu2): PReLU(num_parameters=1)
          (lnorm2): GlobalChannelLayerNorm(512, eps=1e-05, elementwise_affine=True)
          (sconv): Conv1d(512, 128, kernel_size=(1,), stride=(1,))
          (skip_out): Conv1d(512, 128, kernel_size=(1,), stride=(1,))
        )
      )
    )
    (1): Sequential(
      (0): Sequential(
        (0): Conv1DBlock(
          (conv1x1): Conv1D(128, 512, kernel_size=(1,), stride=(1,))
          (prelu1): PReLU(num_parameters=1)
          (lnorm1): GlobalChannelLayerNorm(512, eps=1e-05, elementwise_affine=True)
          (dconv): Conv1d(512, 512, kernel_size=(3,), stride=(1,), padding=(1,), groups=512)
          (prelu2): PReLU(num_parameters=1)
          (lnorm2): GlobalChannelLayerNorm(512, eps=1e-05, elementwise_affine=True)
          (sconv): Conv1d(512, 128, kernel_size=(1,), stride=(1,))
          (skip_out): Conv1d(512, 128, kernel_size=(1,), stride=(1,))
        )
        (1): Conv1DBlock(
          (conv1x1): Conv1D(128, 512, kernel_size=(1,), stride=(1,))
          (prelu1): PReLU(num_parameters=1)
          (lnorm1): GlobalChannelLayerNorm(512, eps=1e-05, elementwise_affine=True)
          (dconv): Conv1d(512, 512, kernel_size=(3,), stride=(1,), padding=(2,), dilation=(2,), groups=512)
          (prelu2): PReLU(num_parameters=1)
          (lnorm2): GlobalChannelLayerNorm(512, eps=1e-05, elementwise_affine=True)
          (sconv): Conv1d(512, 128, kernel_size=(1,), stride=(1,))
          (skip_out): Conv1d(512, 128, kernel_size=(1,), stride=(1,))
        )
        (2): Conv1DBlock(
          (conv1x1): Conv1D(128, 512, kernel_size=(1,), stride=(1,))
          (prelu1): PReLU(num_parameters=1)
          (lnorm1): GlobalChannelLayerNorm(512, eps=1e-05, elementwise_affine=True)
          (dconv): Conv1d(512, 512, kernel_size=(3,), stride=(1,), padding=(4,), dilation=(4,), groups=512)
          (prelu2): PReLU(num_parameters=1)
          (lnorm2): GlobalChannelLayerNorm(512, eps=1e-05, elementwise_affine=True)
          (sconv): Conv1d(512, 128, kernel_size=(1,), stride=(1,))
          (skip_out): Conv1d(512, 128, kernel_size=(1,), stride=(1,))
        )
        (3): Conv1DBlock(
          (conv1x1): Conv1D(128, 512, kernel_size=(1,), stride=(1,))
          (prelu1): PReLU(num_parameters=1)
          (lnorm1): GlobalChannelLayerNorm(512, eps=1e-05, elementwise_affine=True)
          (dconv): Conv1d(512, 512, kernel_size=(3,), stride=(1,), padding=(8,), dilation=(8,), groups=512)
          (prelu2): PReLU(num_parameters=1)
          (lnorm2): GlobalChannelLayerNorm(512, eps=1e-05, elementwise_affine=True)
          (sconv): Conv1d(512, 128, kernel_size=(1,), stride=(1,))
          (skip_out): Conv1d(512, 128, kernel_size=(1,), stride=(1,))
        )
        (4): Conv1DBlock(
          (conv1x1): Conv1D(128, 512, kernel_size=(1,), stride=(1,))
          (prelu1): PReLU(num_parameters=1)
          (lnorm1): GlobalChannelLayerNorm(512, eps=1e-05, elementwise_affine=True)
          (dconv): Conv1d(512, 512, kernel_size=(3,), stride=(1,), padding=(16,), dilation=(16,), groups=512)
          (prelu2): PReLU(num_parameters=1)
          (lnorm2): GlobalChannelLayerNorm(512, eps=1e-05, elementwise_affine=True)
          (sconv): Conv1d(512, 128, kernel_size=(1,), stride=(1,))
          (skip_out): Conv1d(512, 128, kernel_size=(1,), stride=(1,))
        )
        (5): Conv1DBlock(
          (conv1x1): Conv1D(128, 512, kernel_size=(1,), stride=(1,))
          (prelu1): PReLU(num_parameters=1)
          (lnorm1): GlobalChannelLayerNorm(512, eps=1e-05, elementwise_affine=True)
          (dconv): Conv1d(512, 512, kernel_size=(3,), stride=(1,), padding=(32,), dilation=(32,), groups=512)
          (prelu2): PReLU(num_parameters=1)
          (lnorm2): GlobalChannelLayerNorm(512, eps=1e-05, elementwise_affine=True)
          (sconv): Conv1d(512, 128, kernel_size=(1,), stride=(1,))
          (skip_out): Conv1d(512, 128, kernel_size=(1,), stride=(1,))
        )
        (6): Conv1DBlock(
          (conv1x1): Conv1D(128, 512, kernel_size=(1,), stride=(1,))
          (prelu1): PReLU(num_parameters=1)
          (lnorm1): GlobalChannelLayerNorm(512, eps=1e-05, elementwise_affine=True)
          (dconv): Conv1d(512, 512, kernel_size=(3,), stride=(1,), padding=(64,), dilation=(64,), groups=512)
          (prelu2): PReLU(num_parameters=1)
          (lnorm2): GlobalChannelLayerNorm(512, eps=1e-05, elementwise_affine=True)
          (sconv): Conv1d(512, 128, kernel_size=(1,), stride=(1,))
          (skip_out): Conv1d(512, 128, kernel_size=(1,), stride=(1,))
        )
        (7): Conv1DBlock(
          (conv1x1): Conv1D(128, 512, kernel_size=(1,), stride=(1,))
          (prelu1): PReLU(num_parameters=1)
          (lnorm1): GlobalChannelLayerNorm(512, eps=1e-05, elementwise_affine=True)
          (dconv): Conv1d(512, 512, kernel_size=(3,), stride=(1,), padding=(128,), dilation=(128,), groups=512)
          (prelu2): PReLU(num_parameters=1)
          (lnorm2): GlobalChannelLayerNorm(512, eps=1e-05, elementwise_affine=True)
          (sconv): Conv1d(512, 128, kernel_size=(1,), stride=(1,))
          (skip_out): Conv1d(512, 128, kernel_size=(1,), stride=(1,))
        )
      )
    )
  )
  (PRelu): PReLU(num_parameters=1)
  (mask): Conv1D(128, 1024, kernel_size=(1,), stride=(1,))
  (decoder_1d): ConvTrans1D(512, 1, kernel_size=(16,), stride=(8,))
)
2021-11-19 14:23:36 [/workplace/yxzeng/new/Speech_Denoiser/main/nnet/libs/trainer.py:145 - INFO ] Loading model to GPUs:(1, 2), #param: 3.44M
2021-11-19 14:23:37 [/workplace/yxzeng/new/Speech_Denoiser/main/nnet/libs/trainer.py:203 - INFO ] Set eval mode...
…
